…
(--arch lstm) has an attention mechanism built in by default. Notice when you ran the following fairseq-train command $ fairseq-train \\ data/mt-bin \\ --arch lstm \\ --share-decoder-input-output-embed \\ --optimizer adam \\ 3 Bahdanau et al., “Neural Machine Translation by Jointly Learning to Align and Translate,” (2014). https:// arxiv.org/abs/1409.0473. 190 CHAPTER 8 Attention and Transformer --lr 1.0e-3 \\ --max-tokens 4096 \\ --save-dir data/mt-ckpt you should have seen the dump of what your model looks like in your terminal as follows: ... LSTMModel( (encoder): LSTMEncoder( (embed_tokens): Embedding(16832, 512, padding_idx=1) (lstm): LSTM(512, 512) ) (decoder): LSTMDecoder( (embed_tokens): Embedding(11416, 512, padding_idx=1) (layers): ModuleList( (0): LSTMCell(1024, 512) ) (attention): AttentionLayer( (input_proj): Linear(in_features=512, out_features=512, bias=False) (output_proj): Linear(in_features=1024, out_features=512, bias=False) ) ) ) ... This tells you that your model has an encoder and a decoder, but the decoder also has a component called attention (which is of type AttentionLayer), shown in bold in the code snippet. This is exactly the “mini-network” that we covered in section 8.2.1. Now let’s train the same model, but without attention. You can add --decoder- attention 0 to fairseq-train to disable the attention mechanism, while keeping everything else the same, as shown here: $ fairseq-train \\ data/mt-bin \\ --arch lstm \\ --decoder-attention 0 \\ --share-decoder-input-output-embed \\ --optimizer adam \\ --lr 1.0e-3 \\ --max-tokens 4096 \\ --save-dir data/mt-ckpt-no-attn When you run this, you’ll see a similar dump, shown next, that shows the architecture of the model but without attention: LSTMModel( (encoder): LSTMEncoder( (embed_tokens): Embedding(16832, 512, padding_idx=1) (lstm): LSTM(512, 512) ) (decoder): LSTMDecoder( (embed_tokens): Embedding(11416, 512, padding_idx=1) 191Sequence-to-sequence with attention (layers): ModuleList( (0): LSTMCell(1024, 512) ) ) ) As we saw in section 6.3.2, the training process alternates between training and valida- tion. In the training phase, the parameters of the neural network are optimized by the optimizer. In the validation phase, these parameters are fixed, and the model is run on a held-out portio
…
un on your laptop. You really need GPUs to train the Transformer models. Also note that training can take hours even with GPUs. See sec- tion 11.5 for more information on using GPUs. A number of cryptic parameters appear here, but you don’t need to worry about them. You can see the model structure when you run this command. The entire model dump is quite long, so we are omitting some intermediate layers in listing 8.1. If you look carefully, you’ll see that the structure of the layers corresponds to the fig- ures we showed earlier. TransformerModel( (encoder): TransformerEncoder( (embed_tokens): Embedding(16832, 512, padding_idx=1) (embed_positions): SinusoidalPositionalEmbedding() (layers): ModuleList( (0): TransformerEncoderLayer( (self_attn): MultiheadAttention( (out_proj): Linear(in_features=512, out_features=512, bias=True) ) (self_attn_layer_norm): LayerNorm((512,), eps=1e-05, elementwise_ affine=True) (fc1): Linear(in_features=512, out_features=2048, bias=True) (fc2): Linear(in_features=2048, out_features=512, bias=True) (final_layer_norm): LayerNorm((512,), eps=1e-05, elementwise_affine=True) ) ... (5): TransformerEncoderLayer( (self_attn): MultiheadAttention( (out_proj): Linear(in_features=512, out_features=512, bias=True) ) (self_attn_layer_norm): LayerNorm((512,), eps=1e-05, elementwise_affine=True) (fc1): Linear(in_features=512, out_features=2048, bias=True) (fc2): Linear(in_features=2048, out_features=512, bias=True) (final_layer_norm): LayerNorm((512,), eps=1e-05, elementwise_affine=True) ) ) ) (decoder): TransformerDecoder( (embed_tokens): Embedding(11416, 512, padding_idx=1) Listing 8.1 Transformer model dump from Fairseq Self-attention of the encoder Feed-forward network of the encoder 199Transformer and self-attention (embed_positions): SinusoidalPositionalEmbedding() (layers): ModuleList( (0): TransformerDecoderLayer( (self_attn): MultiheadAttention( (out_proj): Linear(in_features=512, out_features=512, bias=True) ) (self_attn_layer_norm): LayerNorm((512,), eps=1e-05, elementwise_affine=True) (encoder_attn): MultiheadAttention( (out_proj): Linear(in_features=512, out_features=512, bias=True) ) (encoder_attn_layer_norm): LayerNorm((512,), eps=1e-05, elementwise_ affine=True) (fc1): Linear(in_features=512, out_features=2048, bias=True) (fc2): Linear(in_features=2048, out_features=512, bias=True) (final_layer_norm): LayerNorm((512,), eps=1e-05, elementwise_affine=True) ) ... (5): TransformerDecoderLayer( (self_attn): MultiheadAttention( (out_proj): Linear(in_features=512, out_features=512, bias=True) ) (self_attn_layer_norm): LayerNorm((512,), eps=1e-05, elementwise_affine=True) (encoder_attn): MultiheadAttention( (out_proj): Linear(in_features=512, out_features=512, bias=True) ) (encoder_attn_layer_norm): LayerNorm((512,), eps=1e-05, elementwise_ affine=True) (fc1): Linear(in_features=512, out_features=2048, bias=True) (fc2): Linear(in_features=2048, out_features=512, bias=True) (final_layer_norm): LayerNorm((512,), eps=1e-05, elementwise_affine=True) ) ) ) ) When I ran this, the validation loss converges after around epoch 30, at which point you can stop the training. The result I got by translating the same set of Spanish sen- tences into English follows: ¡ Buenos días ! S-0 ¡ Buenos días ! H-0 -0.0753164291381836 Good morning ! P-0 -0.0532 -0.0063 -0.1782 -0.0635 ¡ Hola ! S-1 ¡ Hola ! H-1 -0.171349
…
